best.pth (torch, 9080 bytes, 4 tensors)

linear1.weight f4 [256, 4]
0	0xc00262c9	-2.0372794
1	0xbf6a25c4	-0.91463876
2	0xbfd94708	-1.6974802
3	0xbf48b9e4	-0.78408647
4	0xc0c1f82f	-6.061546
5	0xc03064d6	-2.7561545
6	0xc10c3fb4	-8.7655525
7	0xc01ddf92	-2.4667706
8	0xbf54d620	-0.8313923
9	0x3fb1eff4	1.3901353
10	0x416b752d	14.716107
11	0x3fe148d0	1.7600346
12	0xbe5a7160	-0.21332312
13	0x3e8ccba9	0.2749913
14	0xbe0a8242	-0.13526252
15	0x3e350323	0.17676978
16	0xbe11b1cb	-0.14227979
17	0x3e33abaa	0.17545953
18	0x3e4dde44	0.20104319
19	0x3e17158a	0.1475431
20	0xc00b024c	-2.1720152
21	0xbea85635	-0.3287827
22	0x3fd3981e	1.6530797
23	0xbf086412	-0.53277695
24	0x40aeeb95	5.4662576
25	0x4040b641	3.011124
26	0x41075483	8.458133
27	0x403c1385	2.9386914
28	0xbfcee13b	-1.6162485
29	0xbe736e02	-0.23772433
30	0x3dc15c5a	0.09441443
31	0xbf1d27a3	-0.61388606
32	0x3e4f1658	0.20223367
33	0xbe408ef6	-0.18804535
34	0x3de684b9	0.112557836
35	0xbd1a4120	-0.037659764
36	0x3dd37858	0.10325688
37	0xbdfc3625	-0.12315015
38	0xbe4d36dc	-0.20040458
39	0x3be1ae70	0.0068872496
40	0x3db8e53a	0.090280965
41	0xbe0cb6a9	-0.13741554
42	0xbf27f896	-0.6561369
43	0xbe13f4b4	-0.14448816
44	0xbe018685	-0.12648971
45	0x3f2f458e	0.6846551
46	0x41820f68	16.257523
47	0x3f3ef745	0.74596053
48	0xbde64150	-0.11242926
49	0x3c929700	0.017894268
50	0x3be1ff28	0.006896872
51	0xbe62f5d9	-0.22164096
52	0xbe380bfe	-0.17973325
53	0x3e27e746	0.16396818
54	0xbe8134a8	-0.25235486
55	0xbe786818	-0.24258459
56	0xbd4399c6	-0.04775407
57	0x3dc1d3d1	0.09464229
58	0x3e9ba7a6	0.30401343
59	0x3de7d0ce	0.11319123
60	0xbfa2bb58	-1.2713423
61	0xbf56fc1c	-0.8397844
62	0xbf40f9b4	-0.75381017
63	0xbf668e9c	-0.90061355
64	0xbe3dbda6	-0.18529376
65	0x3d0ba03e	0.034088366
66	0x3e010c8d	0.12602444
67	0x3cb15a40	0.02164948
68	0x3eb26940	0.34845924
69	0xbe9cc4e9	-0.3061898
70	0xbdefb10a	-0.117036894
71	0xbe017fa2	-0.12646344
72	0x3f2e900a	0.68188536
73	0xbf61e4e6	-0.88239896
74	0xc190f3d7	-18.119062
75	0xbe907173	-0.28211555
76	0xc0283a36	-2.628553
77	0xbf798c4f	-0.9747972
78	0xc002437b	-2.0353687
79	0xbf704b05	-0.9386447
80	0x40cb1629	6.346455
81	0x3fa61d3f	1.2977675
82	0xc0111752	-2.2670484
83	0xc03c06f2	-2.937924
84	0xbfc5e7ac	-1.5461326
85	0xbf8719e8	-1.0554781
86	0xc094d01e	-4.650405
87	0xbfb1c8e4	-1.3889432
88	0xbe6bdec0	-0.23034191
89	0xbe3201b6	-0.17383465
90	0x3fcb6ea4	1.589314
91	0xbf83924d	-1.0279022
92	0xbf86c842	-1.0529864
93	0xbf586f8f	-0.84545225
94	0xc0b51f5c	-5.660078
95	0xbfedf7da	-1.8591263
96	0xbfff4e87	-1.994584
97	0xbf8e09dd	-1.109676
98	0xc0388dc6	-2.8836532
99	0xbfa2a972	-1.2707961
100	0x40022354	2.0334063
101	0xbf9fd1be	-1.2485883
102	0xc151ba80	-13.108032
103	0xbf11a8bb	-0.5689809
104	0xbffde535	-1.9835573
105	0xbf631d1b	-0.88716286
106	0xbf9fac32	-1.2474425
107	0xbf8f8207	-1.1211556
108	0x3e540ae4	0.2070728
109	0x3f0a040d	0.5391243
110	0x41980357	19.00163
111	0xbe9aae8b	-0.3021129
112	0xbf99cc45	-1.2015463
113	0xbf9bb81a	-1.2165558
114	0xc01c67b6	-2.44383
115	0xbf035ca3	-0.5131323
116	0xbf0f5c52	-0.56000245
117	0x3f6b9db7	0.9203753
118	0x41d45e91	26.546175
119	0x406c9339	3.6964858
120	0xc109c04e	-8.609449
121	0xc03f2d8a	-2.9871545
122	0xc1674d4c	-14.456371
123	0xc0335011	-2.8017619
124	0xbf7fd329	-0.9993158
125	0xbe04576d	-0.12923975
126	0xc1ebb3e0	-29.46283
127	0xc08862a3	-4.2620406
128	0xbf8fbab7	-1.1228856
129	0x3f7e3e0b	0.9931342
130	0x417711af	15.441817
131	0x401cd5ee	2.4505572
132	0xbeeec847	-0.46637174
133	0x3d9360dc	0.07196209
134	0x3eeab9ad	0.45844784
135	0x3b62dde0	0.003461711
136	0xc01114ac	-2.2668867
137	0xbf526165	-0.8217986
138	0xc01581c0	-2.3360443
139	0xbfa6e040	-1.3037186
140	0xbfca484a	-1.5803311
141	0xbf89125d	-1.0708729
142	0xc06382d4	-3.55486
143	0xbfc5f875	-1.5466448
144	0x3e9e9e10	0.30979967
145	0xbe1afea6	-0.15136203
146	0x3d91063c	0.07081267
147	0xbde10846	-0.10987906
148	0x3f2a8118	0.6660323
149	0xbe89e6c0	-0.2693386
150	0x3fd01e3a	1.6259224
151	0xbedeb980	-0.435009
152	0xc0eb8d14	-7.3609715
153	0xc00d6648	-2.2093678
154	0xc131bcfc	-11.108639
155	0xbfb25675	-1.3932635
156	0xbfb8207a	-1.4384911
157	0xbe01522b	-0.12629001
158	0xc03e49c1	-2.9732516
159	0xbe22ef44	-0.15911585
160	0x3f2f24de	0.6841563
161	0xbe03653c	-0.12831587
162	0xbfbdd3e3	-1.4830288
163	0x3ea1b9df	0.3158712
164	0xbfb5d2d4	-1.4204965
165	0xbe00cee8	-0.12578928
166	0xc008b767	-2.136194
167	0xbf372d21	-0.71553236
168	0xc0010039	-2.0156386
169	0xbf4e5531	-0.8059874
170	0xc001fdfa	-2.0311265
171	0xbd517cdb	-0.051144462
172	0xbf8558ca	-1.0417721
173	0x3e44dbe0	0.192245
174	0xc1f41229	-30.508867
175	0xc062772a	-3.5385232
176	0xc00749f6	-2.1138892
177	0xbf104de0	-0.5636883
178	0x3ef3f510	0.47647905
179	0xbebf9a91	-0.37422612
180	0xbffab571	-1.9586622
181	0xbee38899	-0.44440153
182	0xbd88ce2d	-0.0667995
183	0xbea64cef	-0.3248057
184	0xbff90a89	-1.945634
185	0xbf2d2bed	-0.6764515
186	0xbe9b0462	-0.3027678
187	0xbea65b54	-0.32491553
188	0x3e3688a4	0.17825562
189	0xbd63902a	-0.055557407
190	0xbe950ed3	-0.29112872
191	0x3d6e84ea	0.058232225
192	0xbff4f497	-1.9137143
193	0xbe91d28a	-0.2848094
194	0xbf72418e	-0.9463128
195	0xbe7230f2	-0.23651484
196	0xbddd8221	-0.10815836
197	0xbc7d2788	-0.0154513195
198	0x3d457678	0.048208684
199	0xbe4168ff	-0.18887709
200	0xc00ff2a9	-2.2491858
201	0xbed7ac85	-0.4212381
202	0xbf76cf4f	-0.9641008
203	0xbe72c60a	-0.23708358
204	0xc0153971	-2.331631
205	0xbe050d00	-0.1299324
206	0x3fcfbb24	1.6228986
207	0xbe10ca89	-0.14139761
208	0xbfd2a12a	-1.6455433
209	0xbfb5b947	-1.4197167
210	0xbfa295dc	-1.2701983
211	0xbfa38bf0	-1.277708
212	0xbdca4114	-0.09875694
213	0xbdbb9c51	-0.09160674
214	0x3e1d4178	0.15357006
215	0xbd72ef38	-0.059310168
216	0xbfc84350	-1.5645542
217	0xbf21e9ff	-0.63247675
218	0xbffb6383	-1.9639744
219	0xbf624304	-0.8838351
220	0xbfd53e6a	-1.6659672
221	0xbf5773dd	-0.8416117
222	0xc0809892	-4.0186243
223	0xbee3b547	-0.4447424
224	0xbf2aa43e	-0.66656864
225	0x3e9e4376	0.30910844
226	0xc0096b0a	-2.1471581
227	0x3db8c193	0.09021296
228	0x3f9bfba2	1.2186167
229	0xbf8dba67	-1.107251
230	0xc2051fb4	-33.28096
231	0xc0a10b81	-5.0326543
232	0xbfcb0e18	-1.5863676
233	0x3dd454b3	0.103677176
234	0x41d5013d	26.625605
235	0x4027e134	2.6231203
236	0x3e9614f0	0.2931285
237	0xbe559405	-0.20857246
238	0xbd9e9639	-0.077434964
239	0xbd75e56c	-0.060033247
240	0xbfea8dc8	-1.8324518
241	0x3eb957e4	0.36199868
242	0x4183909e	16.445614
243	0xbf8679ae	-1.0505884
244	0x410c70af	8.777511
245	0x401d5c36	2.458753
246	0x413bc23a	11.734919
247	0x3f70b531	0.94026476
248	0xbf99f879	-1.2028953
249	0x3ed2c0f2	0.4116283
250	0x41c95bab	25.16976
251	0x403dc7d3	2.9653213
252	0xbb85b370	-0.0040802285
253	0x3e5e46be	0.21706674
254	0x3ec22214	0.37916625
255	0x3e95d05e	0.29260534

linear1.bias f4 [256]
0	0x4069441a	3.6447816
1	0xc135de32	-11.366747
2	0xc0c4d30e	-6.1507635
3	0xbf6b908e	-0.9201745
4	0xbf34d4ad	-0.7063702
5	0x4046f6b8	3.1088085
6	0xc132ec6a	-11.182718
7	0x4045e97a	3.0923753
8	0xbf1cd468	-0.61261606
9	0xbed88004	-0.42285168
10	0xbf257f6b	-0.6464755
11	0xc0b6e904	-5.7159443
12	0xbf45ccb5	-0.77265483
13	0xc0029637	-2.0404184
14	0xbef7ec64	-0.4842254
15	0x406525a9	3.5804236
16	0xbf126365	-0.57182914
17	0xbf8dd3b4	-1.1080232
18	0xc0a17f61	-5.046799
19	0x406a05e9	3.6566107
20	0xbd644d19	-0.05573759
21	0x4048e3ef	3.138912
22	0xc040700e	-3.0068393
23	0x404ba0f2	3.1816983
24	0x4042582b	3.0366313
25	0xc0e8c9d3	-7.2746367
26	0x4044be33	3.0741088
27	0xc0c94481	-6.2896123
28	0x40702be6	3.7526793
29	0xc09cc8dc	-4.899519
30	0xc171214b	-15.070628
31	0xc09e6c0a	-4.9506884
32	0xc1023781	-8.138551
33	0xbfd2cf27	-1.6469468
34	0x4041d3f7	3.0285623
35	0x404d5f82	3.2089543
36	0xbf8da1ac	-1.1064963
37	0xbfefa2c6	-1.872155
38	0xc149d299	-12.613915
39	0x405ae302	3.4201055
40	0xc03a65c2	-2.9124608
41	0xc09e75ce	-4.9518805
42	0x4070524f	3.7550237
43	0xc0d6d5c8	-6.7135963
44	0x404cfbcb	3.2028682
45	0x405ae81b	3.4204166
46	0x4049ef30	3.1552238
47	0xbf605aee	-0.8763875
48	0x405a4ebf	3.4110563
49	0xbf209e51	-0.6274157
50	0x402e88ab	2.7270916
51	0x405d6552	3.459309
52	0x405d7d63	3.460778
53	0xbf21993e	-0.63124454
54	0x4057131e	3.3605418
55	0x4074fffa	3.8281236
56	0xc00b10c9	-2.1728995
57	0xc0c26cf1	-6.0757985
58	0xc0cdc15b	-6.429853
59	0xbf593910	-0.84852695
60	0xc0d0f9a6	-6.5304747
61	0xc166454f	-14.391921
62	0xc0dbcce7	-6.8687625
63	0xbf904f07	-1.1274117
64	0xbf1ee29f	-0.62064546
65	0xc0845fe1	-4.136704
66	0x405e3b75	3.472379
67	0xc1314a87	-11.080695
68	0x40536a42	3.3033605
69	0x40254a8e	2.5826755
70	0xbf4e28ea	-0.8053118
71	0x405dd002	3.4658208
72	0x4060c47b	3.5119922
73	0xbf47eff5	-0.7810052
74	0xbeec5dbc	-0.46165264
75	0x4050804d	3.2578309
76	0xbee6199e	-0.4494142
77	0xbeef55bf	-0.46745107
78	0x40776897	3.8657587
79	0x402a9ef9	2.665953
80	0xc15420ce	-13.258009
81	0xbf06b792	-0.52623856
82	0xc08987fa	-4.2978487
83	0xc0a9028b	-5.2815604
84	0x40458a6a	3.0865731
85	0xc0a4faf2	-5.155633
86	0x4045291b	3.0806339
87	0xbf311af1	-0.69181734
88	0xc0bb4f27	-5.853412
89	0xbeeaf71b	-0.45891652
90	0x405436cf	3.3158453
91	0xbe7a8089	-0.24463095
92	0x40572a7c	3.361968
93	0xbf32b956	-0.6981405
94	0xc09f7818	-4.98341
95	0x404c1ea3	3.18937
96	0x406e2d80	3.721527
97	0x4046bad3	3.1051528
98	0xbf375eeb	-0.7162921
99	0xc0f3593b	-7.6046424
100	0x4066b82f	3.6049917
101	0xbf8a8b5d	-1.082378
102	0xbf27a888	-0.65491533
103	0x404e3044	3.221696
104	0xbf220dfc	-0.6330259
105	0x40670d53	3.6101882
106	0x404a40c4	3.160203
107	0xc04a871b	-3.1644962
108	0xbfa694e5	-1.3014189
109	0xbf0fcfef	-0.56176656
110	0x406fea10	3.748661
111	0x405213a2	3.2824483
112	0xc0d5db4d	-6.68302
113	0xc0a31d8d	-5.0973573
114	0xbf4e48dc	-0.80579925
115	0xbf098ab1	-0.5372725
116	0xbf0a8a94	-0.54117703
117	0x4072e2de	3.7950969
118	0xbf4f324e	-0.80936134
119	0xc050af5b	-3.2607028
120	0x405dc136	3.4649177
121	0xc07539a1	-3.8316424
122	0xbf52f11a	-0.8239914
123	0xbf250181	-0.6445542
124	0xc0c62b38	-6.1927757
125	0xbf324a97	-0.69645065
126	0xbee292b0	-0.4425254
127	0xbf38a0b5	-0.7212022
128	0x404e772f	3.2260244
129	0x40538405	3.3049328
130	0xbfe4af0d	-1.7865921
131	0xc017e08d	-2.3730805
132	0x4063197f	3.5484312
133	0xc13b2ea4	-11.698887
134	0x403aaf8c	2.9169645
135	0xbfaa4f54	-1.3305459
136	0x405e8e19	3.477423
137	0xbee752a6	-0.45180243
138	0xc0f14c75	-7.540583
139	0xc0b76b56	-5.7318525
140	0xbf54802d	-0.8300808
141	0xbeb27fe1	-0.3486319
142	0x4050ce39	3.2625868
143	0xc0ca02e3	-6.3128524
144	0xbf78b335	-0.9714845
145	0x40618381	3.5236514
146	0x4061cfd4	3.5283098
147	0xbf0c8ed0	-0.54905415
148	0x4065414d	3.5821106
149	0xc12ce25f	-10.805266
150	0xc12c5bef	-10.772445
151	0xbf354ce5	-0.70820457
152	0xbf6b07f7	-0.9180903
153	0x406f957a	3.7434983
154	0xbf50cd77	-0.81563514
155	0x40512d56	3.268392
156	0xbf1b9fc6	-0.6079067
157	0xbf1df7c0	-0.6170616
158	0x405754e0	3.3645554
159	0xbf3e6208	-0.74368334
160	0xbf2269f4	-0.6344292
161	0xc0ec85d9	-7.391339
162	0xc0cd476a	-6.4149675
163	0xc1445dc0	-12.272888
164	0x4067c3b3	3.6213195
165	0xbf257f12	-0.6464702
166	0xbfab54e0	-1.3385277
167	0xbf253d9a	-0.6454712
168	0xc100350f	-8.012954
169	0xbe86facd	-0.2636322
170	0x40610b44	3.5163126
171	0xc0ddf9d6	-6.9367476
172	0xbf1a1807	-0.6019291
173	0xbf74fea5	-0.95701057
174	0xbfbd6c84	-1.4798741
175	0xc0dd07d0	-6.9072037
176	0xbf2fca20	-0.68667793
177	0xc0d8f06f	-6.77935
178	0xc0d18169	-6.547047
179	0xbf5e1039	-0.86743504
180	0xc1890d9b	-17.131643
181	0xbfb56729	-1.4172107
182	0xbf391056	-0.7229055
183	0xc0b59b47	-5.6752048
184	0x40657582	3.585297
185	0x404042bb	3.004073
186	0x40426aa1	3.037758
187	0xbee77df4	-0.45213282
188	0x40450a72	3.0787625
189	0x40478e08	3.118044
190	0xbf19f42a	-0.6013819
191	0xbf7c67ae	-0.985957
192	0x4064dcf8	3.5759869
193	0x405eaf9b	3.479468
194	0xc1177cc7	-9.467963
195	0xc0b0d928	-5.5265083
196	0xbf5da2d6	-0.8657659
197	0x405cb6dd	3.448661
198	0xbf2c7088	-0.6735921
199	0xbf192b29	-0.5983148
200	0xc0c8c8ed	-6.274527
201	0xbf1eadba	-0.61983836
202	0xbf678c92	-0.9044887
203	0xc0aaefbe	-5.3417654
204	0x405f1f36	3.48628
205	0xbf464219	-0.77444607
206	0xc0ce953a	-6.455716
207	0xbf1390c8	-0.57642794
208	0xbf4ce0b4	-0.8003037
209	0x40568ae3	3.352227
210	0xc060a60a	-3.5101342
211	0xc0de7ed7	-6.9529834
212	0xc0b216f1	-5.5653005
213	0x40433f79	3.050749
214	0x40569cf1	3.353329
215	0x406a00a3	3.6562889
216	0x405e757e	3.4759212
217	0xbf015304	-0.50517297
218	0x404c4c3f	3.1921537
219	0x4049fab6	3.1559272
220	0x40598efe	3.3993526
221	0xc06ef137	-3.7334726
222	0xbedb3a94	-0.4281813
223	0xc007bc8c	-2.120883
224	0xbee7ddbf	-0.45286366
225	0x407bbf1b	3.9335392
226	0xbf2bed11	-0.6715861
227	0xbf0e3d74	-0.5556252
228	0xbf3d4b4e	-0.7394303
229	0x404fc1d0	3.2462044
230	0xbf9a3ff0	-1.2050762
231	0xbf475610	-0.77865696
232	0x4070c58d	3.7620575
233	0x404e8714	3.2269945
234	0x403dcd9e	2.9656749
235	0x40760a8c	3.8443937
236	0x4035b0a3	2.838906
237	0xc10c63f3	-8.774402
238	0x4059177b	3.3920581
239	0xbf264a68	-0.64957285
240	0xbf109414	-0.5647595
241	0xbf691b27	-0.91057056
242	0xbfcea761	-1.614483
243	0xbf2b2686	-0.6685566
244	0x4075c474	3.8401155
245	0xbf405861	-0.75134856
246	0xbf84b8c3	-1.0368885
247	0x407ad4c2	3.9192357
248	0xc130d2f1	-11.051499
249	0xbefa5728	-0.4889462
250	0xbf55f7b6	-0.835811
251	0xc0d8071f	-6.7508693
252	0xbeea45bb	-0.45756325
253	0x404d7f04	3.2108774
254	0xc0a50786	-5.1571684
255	0xbf290f17	-0.6603865

linear2.weight f4 [2, 256]
0	0x3fc27b35	1.519385
1	0xc0c1d477	-6.0571856
2	0xc133aa85	-11.229131
3	0xbd34fb76	-0.044185124
4	0x3c17ec00	0.009272575
5	0x3fa861e6	1.3154876
6	0xbffa81f6	-1.9570911
7	0x3f842acb	1.0325559
8	0xbdbfe02c	-0.09368929
9	0xbcf8e4eb	-0.030382594
10	0xbdc7389e	-0.09727596
11	0xc161b57e	-14.10681
12	0xbe683617	-0.22676884
13	0x3eb0aa7c	0.3450507
14	0xbd12e9b4	-0.035867408
15	0x3fab5c2d	1.3387505
16	0xbda97a0a	-0.0827523
17	0x3e20b078	0.15692317
18	0xc14819c0	-12.506287
19	0x3fed5d07	1.8544015
20	0xc0119ba7	-2.2751253
21	0x3fe5c16e	1.7949655
22	0x3fe09994	1.7546868
23	0x3fd5b373	1.6695389
24	0x3feb099b	1.8362306
25	0xc10d1400	-8.817383
26	0x3fb01c11	1.3758565
27	0x4159d8c1	13.615418
28	0x3fb9049a	1.4454529
29	0xc1e8a9a7	-29.082838
30	0xc09e17b6	-4.9403944
31	0xc0d158cd	-6.54209
32	0xc1b3ceed	-22.476038
33	0x3e041ab8	0.12900817
34	0x3fe37c58	1.7772322
35	0x3fdcc0eb	1.7246374
36	0xbdfe187d	-0.124070145
37	0x3f47a2cc	0.77982783
38	0xc0ceb351	-6.459389
39	0x3f80bdb1	1.0057889
40	0x3fc05e9a	1.502887
41	0xbffa9f40	-1.9579849
42	0x3f9f1fb5	1.2431551
43	0xc20ced94	-35.23201
44	0x3fb1cb26	1.3890121
45	0x3fa5cd56	1.2953289
46	0x3fbf747f	1.4957427
47	0x3d309c0c	0.043117568
48	0x3f83b8ab	1.0290731
49	0xbc1fa4a8	-0.009743847
50	0x3facf953	1.3513588
51	0x3f8c92b8	1.0982275
52	0x3fd4167e	1.6569364
53	0x3c207068	0.009792425
54	0x3fa97ef9	1.3241874
55	0x3fa602d1	1.296961
56	0x3e356a65	0.17716368
57	0xc138c39d	-11.547757
58	0xc20bb05c	-34.922226
59	0xbdaf3bb7	-0.085563116
60	0xc153fdbe	-13.249449
61	0xbfd43602	-1.6578982
62	0xc2202000	-40.03125
63	0x3cb93ac0	0.022611022
64	0x3c87bdca	0.01656999
65	0xc114133f	-9.254699
66	0x3fb81d2c	1.4383903
67	0xc1291fd7	-10.570273
68	0x3fb0606e	1.3779428
69	0x3fbd9395	1.4810663
70	0x3e4c3fb6	0.19946179
71	0x3fc1501f	1.5102576
72	0x3f61f38e	0.8826226
73	0x3da06d30	0.07833326
74	0xbd410fba	-0.04713414
75	0x3ffbca1d	1.9671055
76	0xbd9fa383	-0.07794859
77	0x3e12651e	0.14296386
78	0x3fc8db12	1.5691855
79	0xbe9302f8	-0.28713202
80	0xbfd5ff48	-1.6718531
81	0x3cd7939a	0.0263155
82	0xc14bce28	-12.737831
83	0xc1157d02	-9.3430195
84	0x3fc8dac0	1.5691757
85	0xbfa2e448	-1.2725916
86	0x3fa5be36	1.2948673
87	0xbdd1502d	-0.102203704
88	0xc2174ac0	-37.822998
89	0x3da8448c	0.08216199
90	0x3fc825e9	1.5636569
91	0x3c56c5c8	0.013108678
92	0x3fcf1d5c	1.6180835
93	0xbcb56abc	-0.022145621
94	0xc12508cb	-10.314647
95	0x3fbbe0fb	1.4678034
96	0x3fc0dfe4	1.5068326
97	0x3fa6a06b	1.3017706
98	0x3daefb05	0.08543972
99	0xc1899f40	-17.202759
100	0x3fac432e	1.3458002
101	0x3ef593d6	0.47964352
102	0xbceea114	-0.029129542
103	0x3fc01d21	1.500889
104	0xbda53092	-0.08065905
105	0x3f9b8906	1.2151191
106	0x3fb1d3d1	1.3892766
107	0xc083e629	-4.1218457
108	0x3e9e994c	0.3097633
109	0xbb900850	-0.004395522
110	0x3f846ffc	1.0346675
111	0x3f5f84b3	0.8731186
112	0xc16e7033	-14.902392
113	0xc1d19aa1	-26.200502
114	0xbcc4871c	-0.023990206
115	0x3e11f818	0.14254797
116	0x3c62eb70	0.013850078
117	0x3fb410ae	1.406759
118	0x3d8f4717	0.06995981
119	0xc1a79570	-20.947968
120	0x3fefc9d3	1.8733467
121	0xbf502c5d	-0.81317693
122	0x3d002328	0.031283528
123	0x3d069d78	0.032865018
124	0xc2609de6	-56.154198
125	0x3d18514e	0.037186913
126	0x3e0f3d2d	0.1398818
127	0xbbbbcf10	-0.005731471
128	0x3ffcc5f8	1.9747915
129	0x3fe596dd	1.7936665
130	0xbdd7acd4	-0.10531011
131	0x3f25ae35	0.64718944
132	0x3f78f117	0.97242874
133	0xc097841e	-4.7348776
134	0x3fe870d7	1.8159436
135	0xbe5a03fa	-0.2129058
136	0x3f80b1d3	1.0054268
137	0xbce7783a	-0.02825557
138	0xc10650dd	-8.394742
139	0xc23d0242	-47.252205
140	0x3cfcc09c	0.030853562
141	0x3c54e270	0.01299344
142	0x3f7c9b3b	0.9867436
143	0xc1937d4a	-18.436176
144	0x3c7f5380	0.015583873
145	0x3fab31d6	1.3374584
146	0x3fce67af	1.6125392
147	0xbdb66fb6	-0.08908026
148	0x3fa72b8c	1.3060164
149	0x4258c2b0	54.190125
150	0xc11b01a8	-9.687904
151	0x3d1dbd8c	0.038510844
152	0xbcdf2688	-0.027240053
153	0x3f8d43f5	1.1036364
154	0xbdb88e80	-0.09011555
155	0x3f688797	0.90831894
156	0xbdada1df	-0.0847814
157	0xbd083789	-0.033256087
158	0x3fdedd67	1.7411317
159	0xbe03f795	-0.12887414
160	0x3dca704b	0.098846994
161	0xc1d26f63	-26.304388
162	0xc2a0ba45	-80.36381
163	0xc168ddd6	-14.554159
164	0x3f9f80e2	1.2461207
165	0x3d88d04d	0.06680355
166	0x3d921c73	0.071343325
167	0xbc376240	-0.011192858
168	0xc1f5363c	-30.651482
169	0xbcace449	-0.021104949
170	0x3f9f7577	1.2457722
171	0xc1fc0481	-31.5022
172	0xbc3a18d0	-0.011358455
173	0x3e1b85ee	0.15187809
174	0x3c462b18	0.012095235
175	0xc0bc6f0c	-5.8885555
176	0x3d8fdfc6	0.07025103
177	0xc1b9b37f	-23.212645
178	0xc25e7ceb	-55.62199
179	0xc0444bd1	-3.0671275
180	0xc0b22801	-5.5673833
181	0x3de28e19	0.11062259
182	0x3dc9c9a6	0.098529145
183	0x4109e42e	8.618208
184	0x3f69b0d9	0.91285473
185	0x3fa8b17a	1.3179162
186	0x3fb94316	1.4473598
187	0x3db3cc07	0.087791495
188	0x3fcc3b31	1.5955564
189	0x3f98dca4	1.1942334
190	0xbd3fd1d8	-0.046830982
191	0xbe092751	-0.13393904
192	0x3fe0cae6	1.756192
193	0x3febee99	1.8432189
194	0xc017c0d4	-2.3711443
195	0xc1a70062	-20.875187
196	0xbec6f144	-0.38855946
197	0x3fcd4f16	1.603976
198	0xbd016902	-0.031594284
199	0x3d1758f6	0.036950074
200	0xc2206c40	-40.105713
201	0x3da45ca5	0.08025483
202	0x3e953bd7	0.29147217
203	0xbfe0b0c8	-1.7553949
204	0x3fb15292	1.3853323
205	0x3d5fca81	0.054636482
206	0xc1b8f911	-23.121614
207	0x3c2fc068	0.010727026
208	0xbe234e0b	-0.1594774
209	0x3fca1bf0	1.5789776
210	0xc0618552	-3.5237622
211	0xc172a731	-15.165818
212	0xc21aca8b	-38.697796
213	0x3fc82885	1.5637366
214	0x3fb608ad	1.4221398
215	0x3fce97b9	1.6140052
216	0x3fea35ad	1.829763
217	0x39c114e0	0.00036827382
218	0x3fa13c1e	1.2596471
219	0x3ff0ef03	1.882294
220	0x3ff30d0d	1.8988358
221	0xc09a8909	-4.829228
222	0xbdbf4dfb	-0.093410455
223	0xbee8c569	-0.45463112
224	0x3d6d8197	0.057984915
225	0x3fb50607	1.4142464
226	0xbda5fe43	-0.08105137
227	0xbcdbf92c	-0.026852213
228	0xbcd0e968	-0.025501922
229	0x3fbb66ae	1.464071
230	0x3de085d4	0.10963026
231	0x3d1a6edf	0.03770339
232	0x3fa618e2	1.2976344
233	0x400cbdf7	2.1990945
234	0x3febde63	1.8427242
235	0x3f82ee66	1.0229003
236	0x3ffd07b5	1.9767977
237	0xc0947854	-4.6396885
238	0x3fbccbc0	1.474968
239	0xbaed8800	-0.0018122196
240	0x3c89b992	0.01681212
241	0xbd5ffa1c	-0.054681882
242	0xbe4782a6	-0.19483432
243	0x3d0c8f50	0.03431636
244	0x3fd0f61a	1.6325104
245	0xbcfdee9c	-0.030997567
246	0x3e5e96dc	0.21737236
247	0x3fb8b7eb	1.4431127
248	0x426841d8	58.0643
249	0x3d91e720	0.07124162
250	0xbdba58b3	-0.09098949
251	0xc2b06e42	-88.21535
252	0xbcb33064	-0.02187366
253	0x3fa5f51d	1.2965428
254	0xc08a415e	-4.3204794
255	0x3e0553dc	0.13020271

linear2.bias f4 [2]
0	0x4344f76b	196.96648
1	0x43445b01	196.35548
